…
        [ 101, 1037, 2177,  ...,    0,    0,    0],
        [ 101, 2048, 2273,  ...,    0,    0,    0],
        [ 101, 2274, 2111,  ...,    0,    0,    0]])
Vocab size  30522
ImageCaptioningModel(
  (encoder): EfficientNetEncoder(
    (efficientnet): EfficientNetFeatures(
      (conv_stem): Conv2dSame(3, 24, kernel_size=(3, 3), stride=(2, 2), bias=False)
      (bn1): BatchNormAct2d(
        24, eps=0.001, momentum=0.1, affine=True, track_running_stats=True
        (drop): Identity()
        (act): SiLU(inplace=True)
      )
      (blocks): Sequential(
        (0): Sequential(
          (0): ConvBnAct(
            (conv): Conv2d(24, 24, kernel_size=(3, 3), stride=(1, 1), padding=(1, 1), bias=False)
            (bn1): BatchNormAct2d(
              24, eps=0.001, momentum=0.1, affine=True, track_running_stats=True
              (drop): Identity()
              (act): SiLU(inplace=True)
            )
            (aa): Identity()
            (drop_path): Identity()
          )
          (1): ConvBnAct(
            (conv): Conv2d(24, 24, kernel_size=(3, 3), stride=(1, 1), padding=(1, 1), bias=False)
            (bn1): BatchNormAct2d(
              24, eps=0.001, momentum=0.1, affine=True, track_running_stats=True
              (drop): Identity()
              (act): SiLU(inplace=True)
            )
            (aa): Identity()
            (drop_path): Identity()
          )
        )
        (1): Sequential(
          (0): EdgeResidual(
            (conv_exp): Conv2dSame(24, 96, kernel_size=(3, 3), stride=(2, 2), bias=False)
            (bn1): BatchNormAct2d(
              96, eps=0.001, momentum=0.1, affine=True, track_running_stats=True
              (drop): Identity()
              (act): SiLU(inplace=True)
            )
            (aa): Identity()
            (se): Identity()
            (conv_pwl): Conv2d(96, 48, kernel_size=(1, 1), stride=(1, 1), bias=False)
            (bn2): BatchNormAct2d(
              48, eps=0.001, momentum=0.1, affine=True, track_running_stats=True
              (drop): Identity()
              (act): Identity()
            )
            (drop_path): Identity()
          )
          (1): EdgeResidual(
            (conv_exp): Conv2d(48, 192, kernel_size=(3, 3), stride=(1, 1), padding=(1, 1), bias=False)
            (bn1): BatchNormAct2d(
              192, eps=0.001, momentum=0.1, affine=True, track_running_stats=True
              (drop): Identity()
              (act): SiLU(inplace=True)
            )
            (aa): Identity()
            (se): Identity()
            (conv_pwl): Conv2d(192, 48, kernel_size=(1, 1), stride=(1, 1), bias=False)
            (bn2): BatchNormAct2d(
              48, eps=0.001, momentum=0.1, affine=True, track_running_stats=True
              (drop): Identity()
              (act): Identity()
            )
            (drop_path): Identity()
          )
          (2): EdgeResidual(
            (conv_exp): Conv2d(48, 192, kernel_size=(3, 3), stride=(1, 1), padding=(1, 1), bias=False)
            (bn1): BatchNormAct2d(
              192, eps=0.001, momentum=0.1, affine=True, track_running_stats=True
              (drop): Identity()
              (act): SiLU(inplace=True)
            )
            (aa): Identity()
            (se): Identity()
            (conv_pwl): Conv2d(192, 48, kernel_size=(1, 1), stride=(1, 1), bias=False)
            (bn2): BatchNormAct2d(
              48, eps=0.001, momentum=0.1, affine=True, track_running_stats=True
              (drop): Identity()
              (act): Identity()
            )
            (drop_path): Identity()
          )
          (3): EdgeResidual(
            (conv_exp): Conv2d(48, 192, kernel_size=(3, 3), stride=(1, 1), padding=(1, 1), bias=False)
            (bn1): BatchNormAct2d(
              192, eps=0.001, momentum=0.1, affine=True, track_running_stats=True
              (drop): Identity()
              (act): SiLU(inplace=True)
            )
            (aa): Identity()
            (se): Identity()
            (conv_pwl): Conv2d(192, 48, kernel_size=(1, 1), stride=(1, 1), bias=False)
            (bn2): BatchNormAct2d(
              48, eps=0.001, momentum=0.1, affine=True, track_running_stats=True
              (drop): Identity()
              (act): Identity()
            )
            (drop_path): Identity()
          )
        )
        (2): Sequential(
          (0): EdgeResidual(
            (conv_exp): Conv2dSame(48, 192, kernel_size=(3, 3), stride=(2, 2), bias=False)
            (bn1): BatchNormAct2d(
              192, eps=0.001, momentum=0.1, affine=True, track_running_stats=True
              (drop): Identity()
              (act): SiLU(inplace=True)
            )
            (aa): Identity()
            (se): Identity()
            (conv_pwl): Conv2d(192, 64, kernel_size=(1, 1), stride=(1, 1), bias=False)
            (bn2): BatchNormAct2d(
              64, eps=0.001, momentum=0.1, affine=True, track_running_stats=True
              (drop): Identity()
              (act): Identity()
            )
            (drop_path): Identity()
          )
          (1): EdgeResidual(
            (conv_exp): Conv2d(64, 256, kernel_size=(3, 3), stride=(1, 1), padding=(1, 1), bias=False)
            (bn1): BatchNormAct2d(
              256, eps=0.001, momentum=0.1, affine=True, track_running_stats=True
              (drop): Identity()
              (act): SiLU(inplace=True)
            )
            (aa): Identity()
            (se): Identity()
            (conv_pwl): Conv2d(256, 64, kernel_size=(1, 1), stride=(1, 1), bias=False)
            (bn2): BatchNormAct2d(
              64, eps=0.001, momentum=0.1, affine=True, track_running_stats=True
              (drop): Identity()
              (act): Identity()
            )
            (drop_path): Identity()
          )
          (2): EdgeResidual(
            (conv_exp): Conv2d(64, 256, kernel_size=(3, 3), stride=(1, 1), padding=(1, 1), bias=False)
            (bn1): BatchNormAct2d(
              256, eps=0.001, momentum=0.1, affine=True, track_running_stats=True
              (drop): Identity()
              (act): SiLU(inplace=True)
            )
            (aa): Identity()
            (se): Identity()
            (conv_pwl): Conv2d(256, 64, kernel_size=(1, 1), stride=(1, 1), bias=False)
            (bn2): BatchNormAct2d(
              64, eps=0.001, momentum=0.1, affine=True, track_running_stats=True
              (drop): Identity()
              (act): Identity()
            )
            (drop_path): Identity()
          )
          (3): EdgeResidual(
            (conv_exp): Conv2d(64, 256, kernel_size=(3, 3), stride=(1, 1), padding=(1, 1), bias=False)
            (bn1): BatchNormAct2d(
              256, eps=0.001, momentum=0.1, affine=True, track_running_stats=True
              (drop): Identity()
              (act): SiLU(inplace=True)
            )
            (aa): Identity()
            (se): Identity()
            (conv_pwl): Conv2d(256, 64, kernel_size=(1, 1), stride=(1, 1), bias=False)
            (bn2): BatchNormAct2d(
              64, eps=0.001, momentum=0.1, affine=True, track_running_stats=True
              (drop): Identity()
              (act): Identity()
            )
            (drop_path): Identity()
          )
        )
        (3): Sequential(
          (0): InvertedResidual(
            (conv_pw): Conv2d(64, 256, kernel_size=(1, 1), stride=(1, 1), bias=False)
            (bn1): BatchNormAct2d(
              256, eps=0.001, momentum=0.1, affine=True, track_running_stats=True
              (drop): Identity()
              (act): SiLU(inplace=True)
            )
            (conv_dw): Conv2dSame(256, 256, kernel_size=(3, 3), stride=(2, 2), groups=256, bias=False)
            (bn2): BatchNormAct2d(
              256, eps=0.001, momentum=0.1, affine=True, track_running_stats=True
              (drop): Identity()
              (act): SiLU(inplace=True)
            )
            (aa): Identity()
            (se): SqueezeExcite(
              (conv_reduce): Conv2d(256, 16, kernel_size=(1, 1), stride=(1, 1))
              (act1): SiLU(inplace=True)
              (conv_expand): Conv2d(16, 256, kernel_size=(1, 1), stride=(1, 1))
              (gate): Sigmoid()
            )
            (conv_pwl): Conv2d(256, 128, kernel_size=(1, 1), stride=(1, 1), bias=False)
            (bn3): BatchNormAct2d(
              128, eps=0.001, momentum=0.1, affine=True, track_running_stats=True
              (drop): Identity()
              (act): Identity()
            )
            (drop_path): Identity()
          )
          (1): InvertedResidual(
            (conv_pw): Conv2d(128, 512, kernel_size=(1, 1), stride=(1, 1), bias=False)
            (bn1): BatchNormAct2d(
              512, eps=0.001, momentum=0.1, affine=True, track_running_stats=True
              (drop): Identity()
              (act): SiLU(inplace=True)
            )
            (conv_dw): Conv2d(512, 512, kernel_size=(3, 3), stride=(1, 1), padding=(1, 1), groups=512, bias=False)
            (bn2): BatchNormAct2d(
              512, eps=0.001, momentum=0.1, affine=True, track_running_stats=True
              (drop): Identity()
              (act): SiLU(inplace=True)
            )
            (aa): Identity()
            (se): SqueezeExcite(
              (conv_reduce): Conv2d(512, 32, kernel_size=(1, 1), stride=(1, 1))
              (act1): SiLU(inplace=True)
              (conv_expand): Conv2d(32, 512, kernel_size=(1, 1), stride=(1, 1))
              (gate): Sigmoid()
            )
            (conv_pwl): Conv2d(512, 128, kernel_size=(1, 1), stride=(1, 1), bias=False)
            (bn3): BatchNormAct2d(
              128, eps=0.001, momentum=0.1, affine=True, track_running_stats=True
              (drop): Identity()
              (act): Identity()
            )
            (drop_path): Identity()
          )
          (2): InvertedResidual(
            (conv_pw): Conv2d(128, 512, kernel_size=(1, 1), stride=(1, 1), bias=False)
            (bn1): BatchNormAct2d(
              512, eps=0.001, momentum=0.1, affine=True, track_running_stats=True
              (drop): Identity()
              (act): SiLU(inplace=True)
            )
            (conv_dw): Conv2d(512, 512, kernel_size=(3, 3), stride=(1, 1), padding=(1, 1), groups=512, bias=False)
            (bn2): BatchNormAct2d(
              512, eps=0.001, momentum=0.1, affine=True, track_running_stats=True
              (drop): Identity()
              (act): SiLU(inplace=True)
            )
            (aa): Identity()
            (se): SqueezeExcite(
              (conv_reduce): Conv2d(512, 32, kernel_size=(1, 1), stride=(1, 1))
              (act1): SiLU(inplace=True)
              (conv_expand): Conv2d(32, 512, kernel_size=(1, 1), stride=(1, 1))
              (gate): Sigmoid()
            )
            (conv_pwl): Conv2d(512, 128, kernel_size=(1, 1), stride=(1, 1), bias=False)
            (bn3): BatchNormAct2d(
              128, eps=0.001, momentum=0.1, affine=True, track_running_stats=True
              (drop): Identity()
              (act): Identity()
            )
            (drop_path): Identity()
          )
          (3): InvertedResidual(
            (conv_pw): Conv2d(128, 512, kernel_size=(1, 1), stride=(1, 1), bias=False)
            (bn1): BatchNormAct2d(
              512, eps=0.001, momentum=0.1, affine=True, track_running_stats=True
              (drop): Identity()
              (act): SiLU(inplace=True)
            )
            (conv_dw): Conv2d(512, 512, kernel_size=(3, 3), stride=(1, 1), padding=(1, 1), groups=512, bias=False)
            (bn2): BatchNormAct2d(
              512, eps=0.001, momentum=0.1, affine=True, track_running_stats=True
              (drop): Identity()
              (act): SiLU(inplace=True)
            )
            (aa): Identity()
            (se): SqueezeExcite(
              (conv_reduce): Conv2d(512, 32, kernel_size=(1, 1), stride=(1, 1))
              (act1): SiLU(inplace=True)
              (conv_expand): Conv2d(32, 512, kernel_size=(1, 1), stride=(1, 1))
              (gate): Sigmoid()
            )
            (conv_pwl): Conv2d(512, 128, kernel_size=(1, 1), stride=(1, 1), bias=False)
            (bn3): BatchNormAct2d(
              128, eps=0.001, momentum=0.1, affine=True, track_running_stats=True
              (drop): Identity()
              (act): Identity()
            )
            (drop_path): Identity()
          )
          (4): InvertedResidual(
            (conv_pw): Conv2d(128, 512, kernel_size=(1, 1), stride=(1, 1), bias=False)
            (bn1): BatchNormAct2d(
              512, eps=0.001, momentum=0.1, affine=True, track_running_stats=True
              (drop): Identity()
              (act): SiLU(inplace=True)
            )
            (conv_dw): Conv2d(512, 512, kernel_size=(3, 3), stride=(1, 1), padding=(1, 1), groups=512, bias=False)
            (bn2): BatchNormAct2d(
              512, eps=0.001, momentum=0.1, affine=True, track_running_stats=True
              (drop): Identity()
              (act): SiLU(inplace=True)
            )
            (aa): Identity()
            (se): SqueezeExcite(
              (conv_reduce): Conv2d(512, 32, kernel_size=(1, 1), stride=(1, 1))
              (act1): SiLU(inplace=True)
              (conv_expand): Conv2d(32, 512, kernel_size=(1, 1), stride=(1, 1))
              (gate): Sigmoid()
            )
            (conv_pwl): Conv2d(512, 128, kernel_size=(1, 1), stride=(1, 1), bias=False)
            (bn3): BatchNormAct2d(
              128, eps=0.001, momentum=0.1, affine=True, track_running_stats=True
              (drop): Identity()
              (act): Identity()
            )
            (drop_path): Identity()
          )
          (5): InvertedResidual(
            (conv_pw): Conv2d(128, 512, kernel_size=(1, 1), stride=(1, 1), bias=False)
            (bn1): BatchNormAct2d(
              512, eps=0.001, momentum=0.1, affine=True, track_running_stats=True
              (drop): Identity()
              (act): SiLU(inplace=True)
            )
            (conv_dw): Conv2d(512, 512, kernel_size=(3, 3), stride=(1, 1), padding=(1, 1), groups=512, bias=False)
            (bn2): BatchNormAct2d(
              512, eps=0.001, momentum=0.1, affine=True, track_running_stats=True
              (drop): Identity()
              (act): SiLU(inplace=True)
            )
            (aa): Identity()
            (se): SqueezeExcite(
              (conv_reduce): Conv2d(512, 32, kernel_size=(1, 1), stride=(1, 1))
              (act1): SiLU(inplace=True)
              (conv_expand): Conv2d(32, 512, kernel_size=(1, 1), stride=(1, 1))
              (gate): Sigmoid()
            )
            (conv_pwl): Conv2d(512, 128, kernel_size=(1, 1), stride=(1, 1), bias=False)
            (bn3): BatchNormAct2d(
              128, eps=0.001, momentum=0.1, affine=True, track_running_stats=True
              (drop): Identity()
              (act): Identity()
            )
            (drop_path): Identity()
          )
        )
        (4): Sequential(
          (0): InvertedResidual(
            (conv_pw): Conv2d(128, 768, kernel_size=(1, 1), stride=(1, 1), bias=False)
            (bn1): BatchNormAct2d(
              768, eps=0.001, momentum=0.1, affine=True, track_running_stats=True
              (drop): Identity()
              (act): SiLU(inplace=True)
            )
            (conv_dw): Conv2d(768, 768, kernel_size=(3, 3), stride=(1, 1), padding=(1, 1), groups=768, bias=False)
            (bn2): BatchNormAct2d(
              768, eps=0.001, momentum=0.1, affine=True, track_running_stats=True
              (drop): Identity()
              (act): SiLU(inplace=True)
            )
            (aa): Identity()
            (se): SqueezeExcite(
              (conv_reduce): Conv2d(768, 32, kernel_size=(1, 1), stride=(1, 1))
              (act1): SiLU(inplace=True)
              (conv_expand): Conv2d(32, 768, kernel_size=(1, 1), stride=(1, 1))
              (gate): Sigmoid()
            )
            (conv_pwl): Conv2d(768, 160, kernel_size=(1, 1), stride=(1, 1), bias=False)
            (bn3): BatchNormAct2d(
              160, eps=0.001, momentum=0.1, affine=True, track_running_stats=True
              (drop): Identity()
              (act): Identity()
            )
            (drop_path): Identity()
          )
          (1): InvertedResidual(
            (conv_pw): Conv2d(160, 960, kernel_size=(1, 1), stride=(1, 1), bias=False)
            (bn1): BatchNormAct2d(
              960, eps=0.001, momentum=0.1, affine=True, track_running_stats=True
              (drop): Identity()
              (act): SiLU(inplace=True)
            )
            (conv_dw): Conv2d(960, 960, kernel_size=(3, 3), stride=(1, 1), padding=(1, 1), groups=960, bias=False)
            (bn2): BatchNormAct2d(
              960, eps=0.001, momentum=0.1, affine=True, track_running_stats=True
              (drop): Identity()
              (act): SiLU(inplace=True)
            )
            (aa): Identity()
            (se): SqueezeExcite(
              (conv_reduce): Conv2d(960, 40, kernel_size=(1, 1), stride=(1, 1))
              (act1): SiLU(inplace=True)
              (conv_expand): Conv2d(40, 960, kernel_size=(1, 1), stride=(1, 1))
              (gate): Sigmoid()
            )
            (conv_pwl): Conv2d(960, 160, kernel_size=(1, 1), stride=(1, 1), bias=False)
            (bn3): BatchNormAct2d(
              160, eps=0.001, momentum=0.1, affine=True, track_running_stats=True
              (drop): Identity()
              (act): Identity()
            )
            (drop_path): Identity()
          )
          (2): InvertedResidual(
            (conv_pw): Conv2d(160, 960, kernel_size=(1, 1), stride=(1, 1), bias=False)
            (bn1): BatchNormAct2d(
              960, eps=0.001, momentum=0.1, affine=True, track_running_stats=True
              (drop): Identity()
              (act): SiLU(inplace=True)
            )
            (conv_dw): Conv2d(960, 960, kernel_size=(3, 3), stride=(1, 1), padding=(1, 1), groups=960, bias=False)
            (bn2): BatchNormAct2d(
              960, eps=0.001, momentum=0.1, affine=True, track_running_stats=True
              (drop): Identity()
              (act): SiLU(inplace=True)
            )
            (aa): Identity()
            (se): SqueezeExcite(
              (conv_reduce): Conv2d(960, 40, kernel_size=(1, 1), stride=(1, 1))
              (act1): SiLU(inplace=True)
              (conv_expand): Conv2d(40, 960, kernel_size=(1, 1), stride=(1, 1))
              (gate): Sigmoid()
            )
            (conv_pwl): Conv2d(960, 160, kernel_size=(1, 1), stride=(1, 1), bias=False)
            (bn3): BatchNormAct2d(
              160, eps=0.001, momentum=0.1, affine=True, track_running_stats=True
              (drop): Identity()
              (act): Identity()
            )
            (drop_path): Identity()
          )
          (3): InvertedResidual(
            (conv_pw): Conv2d(160, 960, kernel_size=(1, 1), stride=(1, 1), bias=False)
            (bn1): BatchNormAct2d(
              960, eps=0.001, momentum=0.1, affine=True, track_running_stats=True
              (drop): Identity()
              (act): SiLU(inplace=True)
            )
            (conv_dw): Conv2d(960, 960, kernel_size=(3, 3), stride=(1, 1), padding=(1, 1), groups=960, bias=False)
            (bn2): BatchNormAct2d(
              960, eps=0.001, momentum=0.1, affine=True, track_running_stats=True
              (drop): Identity()
              (act): SiLU(inplace=True)
            )
            (aa): Identity()
            (se): SqueezeExcite(
              (conv_reduce): Conv2d(960, 40, kernel_size=(1, 1), stride=(1, 1))
              (act1): SiLU(inplace=True)
              (conv_expand): Conv2d(40, 960, kernel_size=(1, 1), stride=(1, 1))
              (gate): Sigmoid()
            )
            (conv_pwl): Conv2d(960, 160, kernel_size=(1, 1), stride=(1, 1), bias=False)
            (bn3): BatchNormAct2d(
              160, eps=0.001, momentum=0.1, affine=True, track_running_stats=True
              (drop): Identity()
              (act): Identity()
            )
            (drop_path): Identity()
          )
          (4): InvertedResidual(
            (conv_pw): Conv2d(160, 960, kernel_size=(1, 1), stride=(1, 1), bias=False)
            (bn1): BatchNormAct2d(
              960, eps=0.001, momentum=0.1, affine=True, track_running_stats=True
              (drop): Identity()
              (act): SiLU(inplace=True)
            )
            (conv_dw): Conv2d(960, 960, kernel_size=(3, 3), stride=(1, 1), padding=(1, 1), groups=960, bias=False)
            (bn2): BatchNormAct2d(
              960, eps=0.001, momentum=0.1, affine=True, track_running_stats=True
              (drop): Identity()
              (act): SiLU(inplace=True)
            )
            (aa): Identity()
            (se): SqueezeExcite(
              (conv_reduce): Conv2d(960, 40, kernel_size=(1, 1), stride=(1, 1))
              (act1): SiLU(inplace=True)
              (conv_expand): Conv2d(40, 960, kernel_size=(1, 1), stride=(1, 1))
              (gate): Sigmoid()
            )
            (conv_pwl): Conv2d(960, 160, kernel_size=(1, 1), stride=(1, 1), bias=False)
            (bn3): BatchNormAct2d(
              160, eps=0.001, momentum=0.1, affine=True, track_running_stats=True
              (drop): Identity()
              (act): Identity()
            )
            (drop_path): Identity()
          )
          (5): InvertedResidual(
            (conv_pw): Conv2d(160, 960, kernel_size=(1, 1), stride=(1, 1), bias=False)
            (bn1): BatchNormAct2d(
              960, eps=0.001, momentum=0.1, affine=True, track_running_stats=True
              (drop): Identity()
              (act): SiLU(inplace=True)
            )
            (conv_dw): Conv2d(960, 960, kernel_size=(3, 3), stride=(1, 1), padding=(1, 1), groups=960, bias=False)
            (bn2): BatchNormAct2d(
              960, eps=0.001, momentum=0.1, affine=True, track_running_stats=True
              (drop): Identity()
              (act): SiLU(inplace=True)
            )
            (aa): Identity()
            (se): SqueezeExcite(
              (conv_reduce): Conv2d(960, 40, kernel_size=(1, 1), stride=(1, 1))
              (act1): SiLU(inplace=True)
              (conv_expand): Conv2d(40, 960, kernel_size=(1, 1), stride=(1, 1))
              (gate): Sigmoid()
            )
            (conv_pwl): Conv2d(960, 160, kernel_size=(1, 1), stride=(1, 1), bias=False)
            (bn3): BatchNormAct2d(
              160, eps=0.001, momentum=0.1, affine=True, track_running_stats=True
              (drop): Identity()
              (act): Identity()
            )
            (drop_path): Identity()
          )
          (6): InvertedResidual(
            (conv_pw): Conv2d(160, 960, kernel_size=(1, 1), stride=(1, 1), bias=False)
            (bn1): BatchNormAct2d(
              960, eps=0.001, momentum=0.1, affine=True, track_running_stats=True
              (drop): Identity()
              (act): SiLU(inplace=True)
            )
            (conv_dw): Conv2d(960, 960, kernel_size=(3, 3), stride=(1, 1), padding=(1, 1), groups=960, bias=False)
            (bn2): BatchNormAct2d(
              960, eps=0.001, momentum=0.1, affine=True, track_running_stats=True
              (drop): Identity()
              (act): SiLU(inplace=True)
            )
            (aa): Identity()
            (se): SqueezeExcite(
              (conv_reduce): Conv2d(960, 40, kernel_size=(1, 1), stride=(1, 1))
              (act1): SiLU(inplace=True)
              (conv_expand): Conv2d(40, 960, kernel_size=(1, 1), stride=(1, 1))
              (gate): Sigmoid()
            )
            (conv_pwl): Conv2d(960, 160, kernel_size=(1, 1), stride=(1, 1), bias=False)
            (bn3): BatchNormAct2d(
              160, eps=0.001, momentum=0.1, affine=True, track_running_stats=True
              (drop): Identity()
              (act): Identity()
            )
            (drop_path): Identity()
          )
          (7): InvertedResidual(
            (conv_pw): Conv2d(160, 960, kernel_size=(1, 1), stride=(1, 1), bias=False)
            (bn1): BatchNormAct2d(
              960, eps=0.001, momentum=0.1, affine=True, track_running_stats=True
              (drop): Identity()
              (act): SiLU(inplace=True)
            )
            (conv_dw): Conv2d(960, 960, kernel_size=(3, 3), stride=(1, 1), padding=(1, 1), groups=960, bias=False)
            (bn2): BatchNormAct2d(
              960, eps=0.001, momentum=0.1, affine=True, track_running_stats=True
              (drop): Identity()
              (act): SiLU(inplace=True)
            )
            (aa): Identity()
            (se): SqueezeExcite(
              (conv_reduce): Conv2d(960, 40, kernel_size=(1, 1), stride=(1, 1))
              (act1): SiLU(inplace=True)
              (conv_expand): Conv2d(40, 960, kernel_size=(1, 1), stride=(1, 1))
              (gate): Sigmoid()
            )
            (conv_pwl): Conv2d(960, 160, kernel_size=(1, 1), stride=(1, 1), bias=False)
            (bn3): BatchNormAct2d(
              160, eps=0.001, momentum=0.1, affine=True, track_running_stats=True
              (drop): Identity()
              (act): Identity()
            )
            (drop_path): Identity()
          )
          (8): InvertedResidual(
            (conv_pw): Conv2d(160, 960, kernel_size=(1, 1), stride=(1, 1), bias=False)
            (bn1): BatchNormAct2d(
              960, eps=0.001, momentum=0.1, affine=True, track_running_stats=True
              (drop): Identity()
              (act): SiLU(inplace=True)
            )
            (conv_dw): Conv2d(960, 960, kernel_size=(3, 3), stride=(1, 1), padding=(1, 1), groups=960, bias=False)
            (bn2): BatchNormAct2d(
              960, eps=0.001, momentum=0.1, affine=True, track_running_stats=True
              (drop): Identity()
              (act): SiLU(inplace=True)
            )
            (aa): Identity()
            (se): SqueezeExcite(
              (conv_reduce): Conv2d(960, 40, kernel_size=(1, 1), stride=(1, 1))
              (act1): SiLU(inplace=True)
              (conv_expand): Conv2d(40, 960, kernel_size=(1, 1), stride=(1, 1))
              (gate): Sigmoid()
            )
            (conv_pwl): Conv2d(960, 160, kernel_size=(1, 1), stride=(1, 1), bias=False)
            (bn3): BatchNormAct2d(
              160, eps=0.001, momentum=0.1, affine=True, track_running_stats=True
              (drop): Identity()
              (act): Identity()
            )
            (drop_path): Identity()
          )
        )
        (5): Sequential(
          (0): InvertedResidual(
            (conv_pw): Conv2d(160, 960, kernel_size=(1, 1), stride=(1, 1), bias=False)
            (bn1): BatchNormAct2d(
              960, eps=0.001, momentum=0.1, affine=True, track_running_stats=True
              (drop): Identity()
              (act): SiLU(inplace=True)
            )
            (conv_dw): Conv2dSame(960, 960, kernel_size=(3, 3), stride=(2, 2), groups=960, bias=False)
            (bn2): BatchNormAct2d(
              960, eps=0.001, momentum=0.1, affine=True, track_running_stats=True
              (drop): Identity()
              (act): SiLU(inplace=True)
            )
            (aa): Identity()
            (se): SqueezeExcite(
              (conv_reduce): Conv2d(960, 40, kernel_size=(1, 1), stride=(1, 1))
              (act1): SiLU(inplace=True)
              (conv_expand): Conv2d(40, 960, kernel_size=(1, 1), stride=(1, 1))
              (gate): Sigmoid()
            )
            (conv_pwl): Conv2d(960, 256, kernel_size=(1, 1), stride=(1, 1), bias=False)
            (bn3): BatchNormAct2d(
              256, eps=0.001, momentum=0.1, affine=True, track_running_stats=True
              (drop): Identity()
              (act): Identity()
            )
            (drop_path): Identity()
          )
          (1): InvertedResidual(
            (conv_pw): Conv2d(256, 1536, kernel_size=(1, 1), stride=(1, 1), bias=False)
            (bn1): BatchNormAct2d(
              1536, eps=0.001, momentum=0.1, affine=True, track_running_stats=True
              (drop): Identity()
              (act): SiLU(inplace=True)
            )
            (conv_dw): Conv2d(1536, 1536, kernel_size=(3, 3), stride=(1, 1), padding=(1, 1), groups=1536, bias=False)
            (bn2): BatchNormAct2d(
              1536, eps=0.001, momentum=0.1, affine=True, track_running_stats=True
              (drop): Identity()
              (act): SiLU(inplace=True)
            )
            (aa): Identity()
            (se): SqueezeExcite(
              (conv_reduce): Conv2d(1536, 64, kernel_size=(1, 1), stride=(1, 1))
              (act1): SiLU(inplace=True)
              (conv_expand): Conv2d(64, 1536, kernel_size=(1, 1), stride=(1, 1))
              (gate): Sigmoid()
            )
            (conv_pwl): Conv2d(1536, 256, kernel_size=(1, 1), stride=(1, 1), bias=False)
            (bn3): BatchNormAct2d(
              256, eps=0.001, momentum=0.1, affine=True, track_running_stats=True
              (drop): Identity()
              (act): Identity()
            )
            (drop_path): Identity()
          )
          (2): InvertedResidual(
            (conv_pw): Conv2d(256, 1536, kernel_size=(1, 1), stride=(1, 1), bias=False)
            (bn1): BatchNormAct2d(
              1536, eps=0.001, momentum=0.1, affine=True, track_running_stats=True
              (drop): Identity()
              (act): SiLU(inplace=True)
            )
            (conv_dw): Conv2d(1536, 1536, kernel_size=(3, 3), stride=(1, 1), padding=(1, 1), groups=1536, bias=False)
            (bn2): BatchNormAct2d(
              1536, eps=0.001, momentum=0.1, affine=True, track_running_stats=True
              (drop): Identity()
              (act): SiLU(inplace=True)
            )
            (aa): Identity()
            (se): SqueezeExcite(
              (conv_reduce): Conv2d(1536, 64, kernel_size=(1, 1), stride=(1, 1))
              (act1): SiLU(inplace=True)
              (conv_expand): Conv2d(64, 1536, kernel_size=(1, 1), stride=(1, 1))
              (gate): Sigmoid()
            )
            (conv_pwl): Conv2d(1536, 256, kernel_size=(1, 1), stride=(1, 1), bias=False)
            (bn3): BatchNormAct2d(
              256, eps=0.001, momentum=0.1, affine=True, track_running_stats=True
              (drop): Identity()
              (act): Identity()
            )
            (drop_path): Identity()
          )
          (3): InvertedResidual(
            (conv_pw): Conv2d(256, 1536, kernel_size=(1, 1), stride=(1, 1), bias=False)
            (bn1): BatchNormAct2d(
              1536, eps=0.001, momentum=0.1, affine=True, track_running_stats=True
              (drop): Identity()
              (act): SiLU(inplace=True)
            )
            (conv_dw): Conv2d(1536, 1536, kernel_size=(3, 3), stride=(1, 1), padding=(1, 1), groups=1536, bias=False)
            (bn2): BatchNormAct2d(
              1536, eps=0.001, momentum=0.1, affine=True, track_running_stats=True
              (drop): Identity()
              (act): SiLU(inplace=True)
            )
            (aa): Identity()
            (se): SqueezeExcite(
              (conv_reduce): Conv2d(1536, 64, kernel_size=(1, 1), stride=(1, 1))
              (act1): SiLU(inplace=True)
              (conv_expand): Conv2d(64, 1536, kernel_size=(1, 1), stride=(1, 1))
              (gate): Sigmoid()
            )
            (conv_pwl): Conv2d(1536, 256, kernel_size=(1, 1), stride=(1, 1), bias=False)
            (bn3): BatchNormAct2d(
              256, eps=0.001, momentum=0.1, affine=True, track_running_stats=True
              (drop): Identity()
              (act): Identity()
            )
            (drop_path): Identity()
          )
          (4): InvertedResidual(
            (conv_pw): Conv2d(256, 1536, kernel_size=(1, 1), stride=(1, 1), bias=False)
            (bn1): BatchNormAct2d(
              1536, eps=0.001, momentum=0.1, affine=True, track_running_stats=True
              (drop): Identity()
              (act): SiLU(inplace=True)
            )
            (conv_dw): Conv2d(1536, 1536, kernel_size=(3, 3), stride=(1, 1), padding=(1, 1), groups=1536, bias=False)
            (bn2): BatchNormAct2d(
              1536, eps=0.001, momentum=0.1, affine=True, track_running_stats=True
              (drop): Identity()
              (act): SiLU(inplace=True)
            )
            (aa): Identity()
            (se): SqueezeExcite(
              (conv_reduce): Conv2d(1536, 64, kernel_size=(1, 1), stride=(1, 1))
              (act1): SiLU(inplace=True)
              (conv_expand): Conv2d(64, 1536, kernel_size=(1, 1), stride=(1, 1))
              (gate): Sigmoid()
            )
            (conv_pwl): Conv2d(1536, 256, kernel_size=(1, 1), stride=(1, 1), bias=False)
            (bn3): BatchNormAct2d(
              256, eps=0.001, momentum=0.1, affine=True, track_running_stats=True
              (drop): Identity()
              (act): Identity()
            )
            (drop_path): Identity()
          )
          (5): InvertedResidual(
            (conv_pw): Conv2d(256, 1536, kernel_size=(1, 1), stride=(1, 1), bias=False)
            (bn1): BatchNormAct2d(
              1536, eps=0.001, momentum=0.1, affine=True, track_running_stats=True
              (drop): Identity()
              (act): SiLU(inplace=True)
            )
            (conv_dw): Conv2d(1536, 1536, kernel_size=(3, 3), stride=(1, 1), padding=(1, 1), groups=1536, bias=False)
            (bn2): BatchNormAct2d(
              1536, eps=0.001, momentum=0.1, affine=True, track_running_stats=True
              (drop): Identity()
              (act): SiLU(inplace=True)
            )
            (aa): Identity()
            (se): SqueezeExcite(
              (conv_reduce): Conv2d(1536, 64, kernel_size=(1, 1), stride=(1, 1))
              (act1): SiLU(inplace=True)
              (conv_expand): Conv2d(64, 1536, kernel_size=(1, 1), stride=(1, 1))
              (gate): Sigmoid()
            )
            (conv_pwl): Conv2d(1536, 256, kernel_size=(1, 1), stride=(1, 1), bias=False)
            (bn3): BatchNormAct2d(
              256, eps=0.001, momentum=0.1, affine=True, track_running_stats=True
              (drop): Identity()
              (act): Identity()
            )
            (drop_path): Identity()
          )
          (6): InvertedResidual(
            (conv_pw): Conv2d(256, 1536, kernel_size=(1, 1), stride=(1, 1), bias=False)
            (bn1): BatchNormAct2d(
              1536, eps=0.001, momentum=0.1, affine=True, track_running_stats=True
              (drop): Identity()
              (act): SiLU(inplace=True)
            )
            (conv_dw): Conv2d(1536, 1536, kernel_size=(3, 3), stride=(1, 1), padding=(1, 1), groups=1536, bias=False)
            (bn2): BatchNormAct2d(
              1536, eps=0.001, momentum=0.1, affine=True, track_running_stats=True
              (drop): Identity()
              (act): SiLU(inplace=True)
            )
            (aa): Identity()
            (se): SqueezeExcite(
              (conv_reduce): Conv2d(1536, 64, kernel_size=(1, 1), stride=(1, 1))
              (act1): SiLU(inplace=True)
              (conv_expand): Conv2d(64, 1536, kernel_size=(1, 1), stride=(1, 1))
              (gate): Sigmoid()
            )
            (conv_pwl): Conv2d(1536, 256, kernel_size=(1, 1), stride=(1, 1), bias=False)
            (bn3): BatchNormAct2d(
              256, eps=0.001, momentum=0.1, affine=True, track_running_stats=True
              (drop): Identity()
              (act): Identity()
            )
            (drop_path): Identity()
          )
          (7): InvertedResidual(
            (conv_pw): Conv2d(256, 1536, kernel_size=(1, 1), stride=(1, 1), bias=False)
            (bn1): BatchNormAct2d(
              1536, eps=0.001, momentum=0.1, affine=True, track_running_stats=True
              (drop): Identity()
              (act): SiLU(inplace=True)
            )
            (conv_dw): Conv2d(1536, 1536, kernel_size=(3, 3), stride=(1, 1), padding=(1, 1), groups=1536, bias=False)
            (bn2): BatchNormAct2d(
              1536, eps=0.001, momentum=0.1, affine=True, track_running_stats=True
              (drop): Identity()
              (act): SiLU(inplace=True)
            )
            (aa): Identity()
            (se): SqueezeExcite(
              (conv_reduce): Conv2d(1536, 64, kernel_size=(1, 1), stride=(1, 1))
              (act1): SiLU(inplace=True)
              (conv_expand): Conv2d(64, 1536, kernel_size=(1, 1), stride=(1, 1))
              (gate): Sigmoid()
            )
            (conv_pwl): Conv2d(1536, 256, kernel_size=(1, 1), stride=(1, 1), bias=False)
            (bn3): BatchNormAct2d(
              256, eps=0.001, momentum=0.1, affine=True, track_running_stats=True
              (drop): Identity()
              (act): Identity()
            )
            (drop_path): Identity()
          )
          (8): InvertedResidual(
            (conv_pw): Conv2d(256, 1536, kernel_size=(1, 1), stride=(1, 1), bias=False)
            (bn1): BatchNormAct2d(
              1536, eps=0.001, momentum=0.1, affine=True, track_running_stats=True
              (drop): Identity()
              (act): SiLU(inplace=True)
            )
            (conv_dw): Conv2d(1536, 1536, kernel_size=(3, 3), stride=(1, 1), padding=(1, 1), groups=1536, bias=False)
            (bn2): BatchNormAct2d(
              1536, eps=0.001, momentum=0.1, affine=True, track_running_stats=True
              (drop): Identity()
              (act): SiLU(inplace=True)
            )
            (aa): Identity()
            (se): SqueezeExcite(
              (conv_reduce): Conv2d(1536, 64, kernel_size=(1, 1), stride=(1, 1))
              (act1): SiLU(inplace=True)
              (conv_expand): Conv2d(64, 1536, kernel_size=(1, 1), stride=(1, 1))
              (gate): Sigmoid()
            )
            (conv_pwl): Conv2d(1536, 256, kernel_size=(1, 1), stride=(1, 1), bias=False)
            (bn3): BatchNormAct2d(
              256, eps=0.001, momentum=0.1, affine=True, track_running_stats=True
              (drop): Identity()
              (act): Identity()
            )
            (drop_path): Identity()
          )
          (9): InvertedResidual(
            (conv_pw): Conv2d(256, 1536, kernel_size=(1, 1), stride=(1, 1), bias=False)
            (bn1): BatchNormAct2d(
              1536, eps=0.001, momentum=0.1, affine=True, track_running_stats=True
              (drop): Identity()
              (act): SiLU(inplace=True)
            )
            (conv_dw): Conv2d(1536, 1536, kernel_size=(3, 3), stride=(1, 1), padding=(1, 1), groups=1536, bias=False)
            (bn2): BatchNormAct2d(
              1536, eps=0.001, momentum=0.1, affine=True, track_running_stats=True
              (drop): Identity()
              (act): SiLU(inplace=True)
            )
            (aa): Identity()
            (se): SqueezeExcite(
              (conv_reduce): Conv2d(1536, 64, kernel_size=(1, 1), stride=(1, 1))
              (act1): SiLU(inplace=True)
              (conv_expand): Conv2d(64, 1536, kernel_size=(1, 1), stride=(1, 1))
              (gate): Sigmoid()
            )
            (conv_pwl): Conv2d(1536, 256, kernel_size=(1, 1), stride=(1, 1), bias=False)
            (bn3): BatchNormAct2d(
              256, eps=0.001, momentum=0.1, affine=True, track_running_stats=True
              (drop): Identity()
              (act): Identity()
            )
            (drop_path): Identity()
          )
          (10): InvertedResidual(
            (conv_pw): Conv2d(256, 1536, kernel_size=(1, 1), stride=(1, 1), bias=False)
            (bn1): BatchNormAct2d(
              1536, eps=0.001, momentum=0.1, affine=True, track_running_stats=True
              (drop): Identity()
              (act): SiLU(inplace=True)
            )
            (conv_dw): Conv2d(1536, 1536, kernel_size=(3, 3), stride=(1, 1), padding=(1, 1), groups=1536, bias=False)
            (bn2): BatchNormAct2d(
              1536, eps=0.001, momentum=0.1, affine=True, track_running_stats=True
              (drop): Identity()
              (act): SiLU(inplace=True)
            )
            (aa): Identity()
            (se): SqueezeExcite(
              (conv_reduce): Conv2d(1536, 64, kernel_size=(1, 1), stride=(1, 1))
              (act1): SiLU(inplace=True)
              (conv_expand): Conv2d(64, 1536, kernel_size=(1, 1), stride=(1, 1))
              (gate): Sigmoid()
            )
            (conv_pwl): Conv2d(1536, 256, kernel_size=(1, 1), stride=(1, 1), bias=False)
            (bn3): BatchNormAct2d(
              256, eps=0.001, momentum=0.1, affine=True, track_running_stats=True
              (drop): Identity()
              (act): Identity()
            )
            (drop_path): Identity()
          )
          (11): InvertedResidual(
            (conv_pw): Conv2d(256, 1536, kernel_size=(1, 1), stride=(1, 1), bias=False)
            (bn1): BatchNormAct2d(
              1536, eps=0.001, momentum=0.1, affine=True, track_running_stats=True
              (drop): Identity()
              (act): SiLU(inplace=True)
            )
            (conv_dw): Conv2d(1536, 1536, kernel_size=(3, 3), stride=(1, 1), padding=(1, 1), groups=1536, bias=False)
            (bn2): BatchNormAct2d(
              1536, eps=0.001, momentum=0.1, affine=True, track_running_stats=True
              (drop): Identity()
              (act): SiLU(inplace=True)
            )
            (aa): Identity()
            (se): SqueezeExcite(
              (conv_reduce): Conv2d(1536, 64, kernel_size=(1, 1), stride=(1, 1))
              (act1): SiLU(inplace=True)
              (conv_expand): Conv2d(64, 1536, kernel_size=(1, 1), stride=(1, 1))
              (gate): Sigmoid()
            )
            (conv_pwl): Conv2d(1536, 256, kernel_size=(1, 1), stride=(1, 1), bias=False)
            (bn3): BatchNormAct2d(
              256, eps=0.001, momentum=0.1, affine=True, track_running_stats=True
              (drop): Identity()
              (act): Identity()
            )
            (drop_path): Identity()
          )
          (12): InvertedResidual(
            (conv_pw): Conv2d(256, 1536, kernel_size=(1, 1), stride=(1, 1), bias=False)
            (bn1): BatchNormAct2d(
              1536, eps=0.001, momentum=0.1, affine=True, track_running_stats=True
              (drop): Identity()
              (act): SiLU(inplace=True)
            )
            (conv_dw): Conv2d(1536, 1536, kernel_size=(3, 3), stride=(1, 1), padding=(1, 1), groups=1536, bias=False)
            (bn2): BatchNormAct2d(
              1536, eps=0.001, momentum=0.1, affine=True, track_running_stats=True
              (drop): Identity()
              (act): SiLU(inplace=True)
            )
            (aa): Identity()
            (se): SqueezeExcite(
              (conv_reduce): Conv2d(1536, 64, kernel_size=(1, 1), stride=(1, 1))
              (act1): SiLU(inplace=True)
              (conv_expand): Conv2d(64, 1536, kernel_size=(1, 1), stride=(1, 1))
              (gate): Sigmoid()
            )
            (conv_pwl): Conv2d(1536, 256, kernel_size=(1, 1), stride=(1, 1), bias=False)
            (bn3): BatchNormAct2d(
              256, eps=0.001, momentum=0.1, affine=True, track_running_stats=True
              (drop): Identity()
              (act): Identity()
            )
            (drop_path): Identity()
          )
          (13): InvertedResidual(
            (conv_pw): Conv2d(256, 1536, kernel_size=(1, 1), stride=(1, 1), bias=False)
            (bn1): BatchNormAct2d(
              1536, eps=0.001, momentum=0.1, affine=True, track_running_stats=True
              (drop): Identity()
              (act): SiLU(inplace=True)
            )
            (conv_dw): Conv2d(1536, 1536, kernel_size=(3, 3), stride=(1, 1), padding=(1, 1), groups=1536, bias=False)
            (bn2): BatchNormAct2d(
              1536, eps=0.001, momentum=0.1, affine=True, track_running_stats=True
              (drop): Identity()
              (act): SiLU(inplace=True)
            )
            (aa): Identity()
            (se): SqueezeExcite(
              (conv_reduce): Conv2d(1536, 64, kernel_size=(1, 1), stride=(1, 1))
              (act1): SiLU(inplace=True)
              (conv_expand): Conv2d(64, 1536, kernel_size=(1, 1), stride=(1, 1))
              (gate): Sigmoid()
            )
            (conv_pwl): Conv2d(1536, 256, kernel_size=(1, 1), stride=(1, 1), bias=False)
            (bn3): BatchNormAct2d(
              256, eps=0.001, momentum=0.1, affine=True, track_running_stats=True
              (drop): Identity()
              (act): Identity()
            )
            (drop_path): Identity()
          )
          (14): InvertedResidual(
            (conv_pw): Conv2d(256, 1536, kernel_size=(1, 1), stride=(1, 1), bias=False)
            (bn1): BatchNormAct2d(
              1536, eps=0.001, momentum=0.1, affine=True, track_running_stats=True
              (drop): Identity()
              (act): SiLU(inplace=True)
            )
            (conv_dw): Conv2d(1536, 1536, kernel_size=(3, 3), stride=(1, 1), padding=(1, 1), groups=1536, bias=False)
            (bn2): BatchNormAct2d(
              1536, eps=0.001, momentum=0.1, affine=True, track_running_stats=True
              (drop): Identity()
              (act): SiLU(inplace=True)
            )
            (aa): Identity()
            (se): SqueezeExcite(
              (conv_reduce): Conv2d(1536, 64, kernel_size=(1, 1), stride=(1, 1))
              (act1): SiLU(inplace=True)
              (conv_expand): Conv2d(64, 1536, kernel_size=(1, 1), stride=(1, 1))
              (gate): Sigmoid()
            )
            (conv_pwl): Conv2d(1536, 256, kernel_size=(1, 1), stride=(1, 1), bias=False)
            (bn3): BatchNormAct2d(
              256, eps=0.001, momentum=0.1, affine=True, track_running_stats=True
              (drop): Identity()
              (act): Identity()
            )
            (drop_path): Identity()
          )
        )
      )
    )
    (fc): Linear(in_features=256, out_features=512, bias=True)
  )
  (decoder): TransformerDecoder(
    (embed): Embedding(30522, 512)
    (pos_encoder): PositionalEncoding()
    (transformer_decoder): TransformerDecoder(
      (layers): ModuleList(
        (0-5): 6 x TransformerDecoderLayer(
          (self_attn): MultiheadAttention(
            (out_proj): NonDynamicallyQuantizableLinear(in_features=512, out_features=512, bias=True)
          )
          (multihead_attn): MultiheadAttention(
            (out_proj): NonDynamicallyQuantizableLinear(in_features=512, out_features=512, bias=True)
          )
          (linear1): Linear(in_features=512, out_features=512, bias=True)
          (dropout): Dropout(p=0.1, inplace=False)
          (linear2): Linear(in_features=512, out_features=512, bias=True)
          (norm1): LayerNorm((512,), eps=1e-05, elementwise_affine=True)
          (norm2): LayerNorm((512,), eps=1e-05, elementwise_affine=True)
          (norm3): LayerNorm((512,), eps=1e-05, elementwise_affine=True)
          (dropout1): Dropout(p=0.1, inplace=False)
          (dropout2): Dropout(p=0.1, inplace=False)
          (dropout3): Dropout(p=0.1, inplace=False)
        )
      )
    )
    (fc_out): Linear(in_features=512, out_features=30522, bias=True)
  )
)
Epoch 1/5 Training:   0%|          | 0/3973 [00:00<?, ?batch/s]Epoch 1/5 Training:   0%|          | 1/3973 [00:42<47:00:07, 42.60s/batch]Epoch 1/5 Training:   0%|          | 2/3973 [00:42<19:29:01, 17.66s/batch]Epoch 1/5 Training:   0%|          | 4/3973 [00:42<7:19:07,  6.64s/batch] Epoch 1/5 Training:   0%|          | 6/3973 [00:43<3:53:
…
